det/BDetect/model/model.pth (torch, 547505 bytes, 8 tensors)

net.0.weight f4 [16, 1, 3, 3]
000000 78 b8 68 3e 1c b1 8b 3d 3c fb 56 be de 92 47 bc
       0.22726619 0.0682089 -0.20994276 -0.012181012
000010 56 77 ad bc 79 5b 6b 3e af 63 98 3e 5d e7 d7 bd
       -0.021175068 0.22984113 0.29763553 -0.10542176
000020 b9 75 98 be 51 6b f6 bb 26 f9 8b 3e 63 8e 8d bd
       -0.29777315 -0.0075201173 0.27338523 -0.06911924
000030 b8 48 81 3c 5e 76 ed bd e3 ab 6b be d5 73 72 3c
       0.015781745 -0.115948424 -0.23014788 0.014798124
000040 3e 41 d5 3d 07 57 6e be c7 55 03 3d ce ae c8 3d
       0.104128346 -0.23275386 0.032064226 0.09798966
000050 2d df ff bb 35 80 0c bd 3d 39 36 3e b6 16 86 3e
       -0.007808587 -0.034301955 0.17795272 0.26189202
000060 0b e5 67 3e 2e c8 96 be d2 2c 51 3d 48 46 06 be
       0.22645967 -0.294496 0.051068135 -0.13112748
000070 17 2d 2e 3e 55 88 53 be b4 dc 89 be d7 c1 e0 3b
       0.17009388 -0.20657475 -0.26926196 0.006859045
000080 d7 1d 17 bd ec 0b 73 be 4c b3 83 3d ab 50 e5 3d
       -0.036893692 -0.23735017 0.064306825 0.11197027
000090 c3 69 46 be b0 8e d6 3c c0 ff 56 bd 00 f3 52 bd
       -0.19376282 0.026191086 -0.052489996 -0.051501274
0000a0 03 ac 81 be cc bf ce 3d e8 be 00 3d 20 eb c5 3d
       -0.25326547 0.10095176 0.031432062 0.09663987
0000b0 f6 5a 4f be 87 cf 72 be 90 6a 93 be 40 55 39 be
       -0.20249543 -0.23711978 -0.28792238 -0.18098927
0000c0 4e 60 ad 3c 17 e0 52 3e 66 47 87 3e 06 f4 83 3e
       0.021164086 0.20593296 0.2642166 0.25772113
0000d0 a1 b6 95 be ca fa 63 be d6 1c 49 bd c2 74 92 3e
       -0.29240897 -0.22263637 -0.049099766 0.28604704
0000e0 60 48 9b 3d 12 c5 8a 3d 53 7d 21 3e 19 36 3e be
       0.07582164 0.067758694 0.15770464 -0.18575324
0000f0 25 15 8f be 99 bc 21 3e b5 0f 99 3e a9 7a dd 3d
       -0.2794582 0.157946 0.29894796 0.10814411
000100 35 ca 57 3e 71 f3 5d 3d 43 83 0a be 41 df 3e 3e
       0.2107323 0.054187242 -0.13526635 0.18639852
000110 1d 95 58 be 9a 7c 20 3e 3e 70 fe 3d 5e db 90 be
       -0.21150632 0.15672532 0.12423752 -0.28292364
000120 3d f3 2b be db a0 a6 3d 71 ef 86 be 16 6f 0d 3e
       -0.16792007 0.081361495 -0.26354554 0.13811907
000130 d9 85 c7 3d dc 0d 82 3e e2 c2 56 3e 1e 23 64 be
       0.09742326 0.254012 0.2097278 -0.22279021
000140 bb 74 5e be 1a fe be 3d b8 5f 9d bd b8 38 26 3e
       -0.21724217 0.0932581 -0.076842725 0.16232574
000150 62 1c 9e be c6 ce 6a be ec 20 84 3e 12 8d 9d bd
       -0.3088103 -0.2293044 0.25806367 -0.07692923
000160 9b fb 50 3e 0f 80 9f 3e e9 07 88 be 2d b6 39 3d
       0.2040848 0.31152388 -0.26568535 0.045339752
000170 68 75 5c 3c 7c 5f 8b be 50 58 a3 bd 0c 0d 24 be
       0.013455726 -0.27221286 -0.07975829 -0.16020602
000180 39 2c 94 3d dc 61 43 3d 84 b2 04 3d c4 42 67 be
       0.07234997 0.047700748 0.03239681 -0.22584063
000190 5a b6 40 3e 58 62 19 be 03 12 82 be ab 58 94 be
       0.18819562 -0.14978921 -0.25404367 -0.28973898
0001a0 4b 0e 43 3e c0 5a 55 be 4d f3 20 be 76 75 a9 3e
       0.19048421 -0.208354 -0.15717812 0.33097428
0001b0 77 94 85 be 90 c8 19 3e 3d a5 92 bd 9f 28 32 3e
       -0.26089832 0.15017915 -0.07160423 0.17398308
0001c0 03 20 5a be 89 e3 98 3d aa fa 24 bc 71 45 1c be
       -0.21301274 0.07465274 -0.010069529 -0.15260865
0001d0 0f 09 a0 bd a5 df 5e 3e 45 69 93 3e 11 ba 72 3e
       -0.07814228 0.21765001 0.28791252 0.23703791
0001e0 3a c4 a3 3e e8 8d 80 be d5 6a 1e be 82 44 99 be
       0.31985646 -0.25108266 -0.1547044 -0.2993508
0001f0 b3 d9 94 3e 34 67 54 be d3 0b ad 3d 71 e3 09 3e
       0.2907234 -0.20742494 0.08449521 0.13465668
000200 18 b4 a9 3e 86 a3 a9 3d 59 13 00 be 42 37 a2 3d
       0.33145213 0.08283143 -0.1250738 0.07920696
000210 c3 88 5d be 9d 4e 32 3e ac 1c 7b 3e 76 10 25 be
       -0.21634202 0.17412801 0.24522656 -0.1611956
000220 18 2a 07 3e e0 2d a7 bd f6 15 63 be ea 9a 54 3e
       0.13199651 -0.08163047 -0.22176346 0.2076222
000230 12 49 09 be 08 b2 3d 3c 37 22 48 3e 1f 41 4d 3d
       -0.1340678 0.0115780905 0.19544302 0.050110932

net.0.bias f4 [16]
000000 6f 85 85 bb a4 16 81 3d 47 61 6c be 2a fc 76 3e
       -0.0040747444 0.063031465 -0.23083983 0.2411963
000010 c3 3d 9f be 9f f1 8b 3e 21 64 9f be 21 9b 93 3e
       -0.31101808 0.2733278 -0.3113108 0.2882929
000020 2a 7e 74 be ac 8f 1a 3b 14 5a ca 3d 7f 11 1f 3d
       -0.23876253 0.002358417 0.09880462 0.038835045
000030 96 d0 c4 bd ae 26 6f be b4 29 95 be 86 d7 8f 3e
       -0.09610097 -0.23354599 -0.2913338 0.2809412

net.3.weight f4 [32, 16, 3, 3]
000000 6a b2 62 bd 9a 2b 25 bd 00 11 a2 36 67 48 53 3d
       -0.05534593 -0.040324785 4.8299553e-06 0.05158272
000010 c1 4a 75 bd 9d fb 94 3d 10 59 54 38 a4 73 06 3c
       -0.059885744 0.07274554 5.0627685e-05 0.008206282
000020 62 b2 1f 3d c7 ee 9b bc d1 e5 27 bc 1b 1f eb 3c
       0.03898848 -0.019034756 -0.010247664 0.028701356
000030 ce fd 20 bd 86 aa b6 bc 8b 37 67 3d 94 67 f5 39
       -0.039304547 -0.022298109 0.056449454 0.00046807213
000040 42 80 9e 3d 55 03 38 3c 57 57 99 3c b3 fa 9c bd
       0.07739307 0.011231263 0.018718405 -0.076650046
000050 18 0f a1 3c 0a 95 57 3d 0c 3f a5 3c 99 99 5f 3d
       0.019660518 0.05263237 0.020171665 0.05458984
000060 59 55 28 bd 26 2a 9f 3c fe 86 88 3b b7 5d 93 3d
       -0.04109702 0.019429278 0.004166483 0.07195609
000070 98 75 92 3c de 68 dc 3c 4b c6 81 3d fa d2 84 bd
       0.017878339 0.026905473 0.063366495 -0.06485553
000080 4e 00 a9 3d cf 71 1b 3d 96 66 7c 3d 9b e3 38 3b
       0.08252011 0.037950333 0.06162127 0.0028211835
000090 ac 22 81 3c 70 2c b7 3b fb 03 8d 3d ba 12 3a 3d
       0.015763603 0.005590014 0.06885525 0.045428015
0000a0 8c 68 cc 3c 3c 23 b6 bc f0 48 14 bd 6e 05 9d bd
       0.024952196 -0.022233598 -0.03620237 -0.07667051
0000b0 c0 b5 ee ba cb 70 ef bc a4 40 41 3d 4e d1 88 bd
       -0.0018212125 -0.029228589 0.047180787 -0.06680547
0000c0 71 62 6f 3d e6 b3 97 3d 17 23 7c 3d f3 66 b3 3c
       0.05844349 0.0740736 0.0615569 0.021899676
0000d0 0b 8b 65 bd 07 15 8e 3d f4 e6 b5 bd 7e ea 85 bd
       -0.056040805 0.069376044 -0.088819414 -0.065388665
0000e0 29 86 4f bd 64 5b 9b 3b 1b 50 82 3d df a6 d4 3c
       -0.050665054 0.004741119 0.06362935 0.025958477
0000f0 74 f1 8c 3d af 6e 98 3d aa 56 7a bd c0 27 d9 3c
       0.06881991 0.07442986 -0.061117806 0.026508212
000100 07 67 86 3c 18 7f 96 3d 3f c7 3d 3c 11 3e 22 bd
       0.01640655 0.0734846 0.0115831485 -0.039609972
000110 3c 42 57 3a 8e 58 7f bd 33 af 0b 3d 0a 65 39 bd
       0.0008211469 -0.06234031 0.03410263 -0.045262374
000120 97 03 38 3c 2a b7 27 3c 3a b3 39 bd 91 64 95 bc
       0.011231325 0.010236541 -0.04533694 -0.01823643
000130 c9 57 1e 3d 97 49 30 bd 81 22 0e 3d 1d df 8a bd
       0.038657937 -0.04303893 0.034700874 -0.06780837
000140 90 3e 13 bb b6 39 ad bd c3 27 01 bd cb 77 b4 3c
       -0.002246771 -0.08458273 -0.03153206 0.022029778
000150 ea 1e 7c bc ca 8d bf bc 7f 11 93 bd c6 e3 61 3c
       -0.01538823 -0.02338304 -0.071810715 0.013787216
000160 9b 40 d6 3b 9f 49 3d 3d 67 31 97 bb d9 be 98 3d
       0.0065384633 0.04621279 -0.0046140435 0.07458276
000170 eb 8f 5f bc 73 e5 ce bb af 08 5f 3d f2 2b 98 3d
       -0.013645153 -0.0063139736 0.05445164 0.07430257
000180 80 03 e8 bc 7b 92 9e bd 87 20 59 3d 04 22 12 bd
       -0.028321981 -0.07742783 0.053009536 -0.03567697
000190 7f de 83 bd e1 c0 74 3d c1 ad 76 3c cd 16 82 bc
       -0.06438922 0.059754256 0.015056075 -0.015880013
0001a0 22 65 bf 3c 3e 0f 57 bd 6b 4f 11 bd 85 1d f5 bc
       0.023363654 -0.05250477 -0.03547613 -0.029921303
0001b0 5c af eb bc 16 eb 65 bc 48 87 b9 bc d0 12 d0 3c
       -0.028770141 -0.0140331 -0.022647515 0.025399595
0001c0 07 8d 25 bd 49 ca 1b bd 4c 4f e9 3c 02 98 cc 3c
       -0.040417697 -0.03803471 0.028480195 0.024974827
0001d0 42 0c a9 bd b0 01 46 bd ea 99 12 bd 34 47 a7 3c
       -0.08254291 -0.048341453 -0.035791315 0.020419694
0001e0 14 7e b4 3a bc e7 65 3c 48 8d ee bc 5d ef a4 bd
       0.0013770484 0.014032301 -0.029120103 -0.080534674
0001f0 61 bd 34 3d b0 09 b4 3b 0e 16 32 3b ca 31 18 bd
       0.04412592 0.005494319 0.002717379 -0.037156858
000200 4e 52 6c bd a3 46 96 bd 6f 06 4d 3d 1f 4c 87 bb
       -0.05769568 -0.07337692 0.050054964 -0.0041289474
000210 7c 2e 21 3d 87 26 97 3d 7f f6 e5 3c 14 0b 8b 3d
       0.03935097 0.073803954 0.02807164 0.06789222
000220 0b 62 8d bd 91 30 69 3d 37 e9 7a 3d 1b 84 a9 bd
       -0.06903466 0.056931082 0.061257567 -0.0827715
000230 98 22 8f bd 47 3d ec 3b 11 ed ba 3c 2f a5 98 bd
       -0.0698902 0.0072094533 0.02281812 -0.07453381
000240 5d bf da 3c 59 e2 51 3d b9 fb 4d 3d c6 70 86 bb
       0.026702577 0.051241253 0.05028889 -0.004102799
000250 17 70 e0 bc f6 33 37 3c 53 62 54 3c 57 ff 92 3d
       -0.027397199 0.011181822 0.012962895 0.071776085
000260 11 aa 7b 3d 24 d4 fe bc c6 11 02 bd 4d c3 0c 3c
       0.061441485 -0.031107016 -0.03175523 0.008591485
000270 3f cc f4 bb b7 93 31 3d 84 36 32 3c 6b b7 2f 3c
       -0.007470637 0.043353762 0.010877255 0.010724883
000280 90 49 ec 3a 72 cd 54 bd 02 11 a1 3d c5 1c 51 bc
       0.0018027294 -0.05195374 0.07864572 -0.012763207
000290 81 2e 7d bd 6a 65 86 bc d5 9e 7e bd 35 ba 93 3b
       -0.061811928 -0.01640578 -0.062163193 0.0045082816
0002a0 b6 45 8f bd c2 cd 9e 3c 79 f0 bf bb 28 6b ad bd
       -0.06995718 0.019385222 -0.005857524 -0.08467704
0002b0 06 b4 72 3d c3 9f a9 bd 02 58 ce bc 7a 76 1c 3d
       0.059253715 -0.08282425 -0.02518845 0.038198926
0002c0 71 ea 8d bc e8 3d 22 bd 86 6e b7 3a e1 e9 2e 3d
       -0.017323704 -0.03960982 0.001399473 0.042703513
0002d0 c0 38 5c 3c 74 6e f9 3c 82 3e 59 3d 23 fb 8d 3d
       0.013441265 0.030448176 0.053038128 0.06932666
0002e0 d9 e1 a7 3d 1a f1 6b 3d f1 9d 80 3d a1 c5 93 3d
       0.08197374 0.05760298 0.06280125 0.07215429
0002f0 a6 75 2a 3d 4d 89 88 bb 94 68 5b 3c b9 2b 6d bc
       0.041616105 -0.004166758 0.013391633 -0.014475756
000300 da 7f aa bd db 00 ba bc 6f 3b 67 3d 11 7a 49 bb
       -0.08325167 -0.022705486 0.056453165 -0.0030742923
000310 47 ea 9c bd 4c c8 9a 3d b6 cd a0 bd d3 ef 9b ba
       -0.07661872 0.07557735 -0.07851736 -0.0011897035
000320 06 68 93 3c 0a e8 b7 bb 87 83 33 3d c8 94 fc 3c
       0.017993938 -0.005612378 0.043826606 0.030832663
000330 07 87 86 3d ef ab f3 3c 47 4f ac 3d 4e 0d 16 bd
       0.06568723 0.02974507 0.084135585 -0.036633782
000340 47 41 84 3d 6b b4 96 bd 3a 87 2c 3c dc 4d 1e 3d
       0.06457763 -0.07358631 0.010530287 0.03864847
000350 b8 9a e5 3a 29 f4 96 3d 6e 1a 80 bd 3e 19 37 bd
       0.0017517423 0.073707886 -0.06255041 -0.044701807
000360 7b 65 d7 bb 17 20 06 3d b1 9a b4 3b ec bb 58 bd
       -0.0065733767 0.032745447 0.0055116047 -0.05291359
000370 4d 10 a4 3c 92 ce 8f 3d 42 12 ba ba 12 48 f3 bb
       0.020027304 0.07021822 -0.0014196115 -0.007424363
000380 d6 1f 86 3d 66 75 94 bc 3e a7 40 3d b4 ca f1 bc
       0.06549041 -0.018122386 0.047034495 -0.029515602
000390 c1 9f f7 bb ce f8 82 bd 88 e0 71 3d 36 b8 71 bd
       -0.007556886 -0.06395112 0.05905202 -0.059013568
0003a0 cd da 36 bd bd 26 03 bd f7 ca 3b 3d fe 6e 5e 3c
       -0.04464226 -0.032019366 0.04584786 0.013576267
0003b0 bf 5d 8e 3c 6a 2d 9e 3d 40 06 16 bc 20 83 7e bd
       0.017378686 0.07723506 -0.009156764 -0.06213677
0003c0 1e a4 9f 3d e5 82 68 3c 58 92 b6 bb c6 0b 86 bd
       0.07794975 0.014191364 -0.0055716448 -0.06545214
0003d0 6d 06 4c 3d a3 9b 20 bd 08 3b 99 bd 5f c5 93 3b
       0.049810816 -0.039210927 -0.074819624 0.0045096125
0003e0 fa ad a3 bd 52 22 88 bd dc 85 65 bd 99 39 3e bd
       -0.07992168 -0.06647171 -0.05603586 -0.04644165
0003f0 1c d1 86 3c 1d 49 75 3d 68 a7 a5 3d ad 8e 8d 3d
       0.016457133 0.05988418 0.08088571 0.06911979

net.3.bias f4 [32]
000000 b5 19 88 3d d3 d5 a8 bd 81 3e b7 3c 9f 61 7c bc
       0.06645528 -0.08243909 0.022368671 -0.015404134
000010 72 be 9f 3b 6d 45 8a bd a3 2e 52 bd 32 4a 84 3d
       0.004874998 -0.06751523 -0.051314007 0.06459464
000020 07 83 35 bd bf ec a3 3c 40 4f cd 3c e0 d9 68 bc
       -0.04431441 0.02001035 0.025062203 -0.014212102
000030 17 5b a3 3d dc 5d 6c 3d 8c d0 48 3d 91 cf 8b bd
       0.079763584 0.0577067 0.04902701 -0.068266995
000040 4f 30 28 bd 8b 8c 6e bd ac 60 38 bd 4b 89 09 3c
       -0.041061696 -0.0582395 -0.04501407 0.00839455
000050 56 3d c1 3c d5 48 ae 3d d7 7d dc 3b f2 8f d4 bc
       0.023588818 0.08509985 0.0067288685 -0.025947545
000060 a4 07 35 3d 3f e8 92 3d f3 87 86 3d f1 b8 86 bd
       0.04419674 0.07173204 0.06568899 -0.065782435
000070 df 2e 6b 3d bc b0 31 bd 7d 59 7a bd c5 b1 9a bb
       0.057417747 -0.043381438 -0.0611205 -0.004720899

net.7.weight f4 [64, 2048]
000000 67 31 6a bc 07 94 d5 bb 05 7d 8b bc b4 72 e2 ba
       -0.014294005 -0.0065178904 -0.017027387 -0.0017276616
000010 87 95 45 3c d8 91 b5 3c a5 2e 09 bc ab 3d ae bb
       0.012059576 0.02216427 -0.008372937 -0.00531741
000020 e4 37 6d 3c a6 23 87 3c fe b3 08 3c b6 53 07 bc
       0.014478657 0.01649649 0.008343695 -0.008259704
000030 ce d1 3f bc f6 21 d0 3b ae 1f 3d 3c 05 78 36 bc
       -0.011707736 0.0063517047 0.011543198 -0.011137013
000040 fc 08 0d 3a 8a f2 97 3c c7 71 8b bb b2 e0 b0 bb
       0.0005380062 0.018548269 -0.0042555067 -0.0053978795
000050 c5 b9 da 3c be 43 c4 3c ed ff 82 3c f0 15 0b ba
       0.02669991 0.023958083 0.015991176 -0.0005305698
000060 c2 3e b6 bb 11 2e 02 bc a9 74 b6 3a 8f f3 7e bc
       -0.0055616805 -0.007945553 0.0013920265 -0.015560999
000070 b0 98 0c bc 36 d4 a8 3c 3a a2 d2 39 d9 bb c8 3a
       -0.008581325 0.020609003 0.0004017519 0.0015314772
000080 e9 64 e2 3c ad 92 c8 3c 4b 2e 7c 3c f6 06 08 b9
       0.027636008 0.024484003 0.0153918965 -0.00012972564
000090 12 03 c4 bb 52 14 61 bc 06 e7 b1 3c ea 8f 84 3c
       -0.0059818113 -0.013737755 0.021716606 0.016181905
0000a0 6f 08 78 3c 14 a1 3b 3c 00 85 59 bc 05 f3 75 3c
       0.0151387295 0.011451978 -0.013276339 0.015011554
0000b0 78 3d 04 3b 82 75 e3 3b 54 5d 81 bc b3 21 3f 3c
       0.002017824 0.0069414983 -0.015791573 0.011665749
0000c0 12 45 ca bb 17 51 1c bc 27 11 3f 3c 3b 24 fc 3b
       -0.0061727846 -0.009540818 0.011661804 0.0076947487
0000d0 b4 4c 67 bc f0 30 f2 3a 53 d3 b0 3b 02 dc 7c bc
       -0.014117409 0.0018477719 0.0053962856 -0.015433313
0000e0 c5 15 05 3c 38 66 73 3b 81 62 d5 3c 73 96 ea bb
       0.008122866 0.0037139785 0.026047947 -0.007159048
0000f0 68 d1 77 bc d4 49 26 3b 37 f6 b6 bb 8f 90 de 3c
       -0.01512561 0.0025373595 -0.0055835503 0.02716854
000100 0e e1 b0 bc f5 8c 2b bb 0c 8f a9 3c 27 29 93 3c
       -0.02159169 -0.0026176546 0.020698093 0.017963959
000110 f3 b6 ce 3b f5 b4 82 bc b4 ae 12 3c 18 90 6c 3c
       0.0063084303 -0.015955428 0.008952785 0.0144386515
000120 9d b2 3a bc 56 c0 e2 3c 89 29 1e 3c 33 17 3b 3c
       -0.011395124 0.027679604 0.009653457 0.011419105
000130 ed 52 d4 3c f6 6b d4 3c 84 1d 7e bb cd 38 05 bc
       0.025918448 0.025930386 -0.0038774917 -0.008131218
000140 37 a8 51 bc 7d 07 a3 3c bd 3f 99 3c b4 7c c9 ba
       -0.012796453 0.019901032 0.01870715 -0.0015372247
000150 dc c4 30 bc 78 ca 3b 3c d8 59 54 bb 6b db ce 3a
       -0.010789122 0.0114618465 -0.0032402184 0.0015781944
000160 4b 26 c3 3c 46 0e b4 3b 82 e1 02 bc d8 36 39 bc
       0.02382197 0.0054948656 -0.007988336 -0.01130458
000170 a1 6c be 3b b8 5f 67 bb 57 25 5c bc 90 3c c7 3c
       0.0058112894 -0.0035304856 -0.013436637 0.02432087
000180 ae e8 9c 3c 20 9f 6e bc 8e ca 43 bc 23 48 00 3b
       0.01915392 -0.014564306 -0.011950148 0.0019574247
000190 87 d9 9a 3a dd 9a e2 3c 30 3f 84 bc da 6b 55 bc
       0.0011814096 0.027661735 -0.016143411 -0.013026202
0001a0 fb 09 aa 3c a2 d4 ba ba da 6e 15 3c fa 3d f5 3b
       0.020756712 -0.0014254043 0.009120667 0.007484195
0001b0 9f 07 b6 3c c1 67 07 3c c9 12 84 bc 1c 1c e2 3b
       0.02222043 0.008264483 -0.016122239 0.0069003236
0001c0 99 93 27 3c 93 c9 63 3b 54 51 82 3c 21 67 98 3c
       0.010228061 0.0034757599 0.01590792 0.018603863
0001d0 30 d8 85 3a 84 0b d9 3b 40 3b e8 3b bf 41 07 bb
       0.0010211524 0.006623687 0.0070871413 -0.0020638553
0001e0 98 14 00 3c 9e 59 bb bc d0 a5 b6 bc 9a 15 c4 3b
       0.00781741 -0.022869881 -0.022295862 0.0059840204
0001f0 01 3f 05 3c 1e 7d 66 bc b1 78 b9 3c ec 4d 68 ba
       0.008132697 -0.014067916 0.022640558 -0.0008861709
000200 bb ae 6f bc d4 41 12 3c 54 57 ec 3b 55 5b af 3c
       -0.014629061 0.008926827 0.0072125588 0.021405855
000210 87 56 50 bc a7 95 cd bb 05 74 2f bc d7 f3 11 3b
       -0.012715942 -0.0062739435 -0.010708814 0.0022270584
000220 88 2f dd 3c c0 57 5a 3c 21 14 71 3c e8 5d 4d 3c
       0.027000204 0.013326585 0.014714272 0.012534596
000230 53 43 51 3c 11 02 8a bc 66 12 51 3c fd 67 fa bb
       0.012772399 -0.016846688 0.012760734 -0.007641791
000240 3d 1f bb 3a 2b d1 91 3c 51 e1 07 3c fe c6 36 bb
       0.0014276278 0.017799934 0.008293466 -0.0027889605
000250 4a ca 13 bc 90 6f 6a bc 85 99 b7 3c a4 87 81 bc
       -0.009020397 -0.014308825 0.022412071 -0.015811749
000260 3e c0 6c 3c 39 e4 83 3c dd 0f c1 3c 90 ab 6b bc
       0.014450131 0.016100036 0.023567135 -0.014384165
000270 2b 5a 14 3c 97 ea 5c 3c 2e a6 1a bc f0 5b 93 3c
       0.009054701 0.013483665 -0.009439034 0.017988175
000280 10 35 48 bc 12 0e 80 bc f1 6c a1 3c e3 81 c6 3c
       -0.012219682 -0.01563171 0.019705268 0.024231857
000290 f0 4e 0f bc 66 08 b9 3c 39 1c da 3c 30 6b b0 3b
       -0.0087468475 0.022587012 0.026624786 0.0053838715
0002a0 a6 d9 ad 3b b7 55 a4 3b c1 0f 48 ba c5 77 8d 3c
       0.0053054867 0.005015101 -0.0007631742 0.017269025
0002b0 88 f4 92 3c af 7d 4f 3c b0 30 81 3c 66 0d 5d bc
       0.017938867 0.012664243 0.015770286 -0.013491964
0002c0 d3 8a 7b 3c 13 69 16 3b 78 13 60 ba fe 9e 90 bc
       0.0153529225 0.0022950813 -0.0008547823 -0.017653938
0002d0 02 d7 95 3b 12 63 93 3c 1f f8 a8 3c 35 94 a2 3a
       0.00457275 0.017991576 0.020626126 0.0012403788
0002e0 70 2e a5 3b 2f 02 8a bb 80 a9 d7 ba 88 9a 74 3c
       0.005040936 -0.004211686 -0.0016453713 0.014929421
0002f0 78 c2 cc b7 29 19 66 bc 8e 89 d1 bb 88 13 4e 3a
       -2.4409252e-05 -0.014044085 -0.0063945716 0.0007861187
000300 4a 3d 16 bc 48 10 c1 3a a4 90 c0 ba 9c 6e 2c bc
       -0.009169886 0.0014729584 -0.0014691544 -0.010524418
000310 80 4c 87 ba 38 b9 87 bc 50 aa 17 3b d0 7f 58 ba
       -0.0010322481 -0.016567811 0.0023142286 -0.00082587916
000320 ca b6 ea ba 09 04 5f bc 25 6e c3 bc f7 28 9f bc
       -0.0017907259 -0.013611802 -0.023856232 -0.019428713
000330 a7 5a ea 3b f0 e7 ae 3b f0 34 e0 3c 4c 8a 2c 3c
       0.00715192 0.0053377077 0.027368993 0.010531019
000340 66 f0 4a 3c de 1c d7 3b df 4c 9f 3c 34 ca 73 bc
       0.012386417 0.0065647205 0.019445835 -0.014879752
000350 ce 5b 10 3b fa a8 47 3c 9e 00 8e 3c f3 b6 16 3c
       0.0022027376 0.012186283 0.017334279 0.009198892
000360 43 45 a4 bc 6d 65 b3 3b 3c 3f cf 3c 45 f0 64 3c
       -0.020052558 0.0054747374 0.025298707 0.0139733
000370 aa f0 aa bc 03 d5 b6 bb 16 58 26 bc 77 a4 c7 3c
       -0.02086671 -0.005579592 -0.010152837 0.024370415
000380 84 a7 78 3c 32 85 85 3c 5d 55 48 3c 63 97 84 3c
       0.015176658 0.016298864 0.012227383 0.016185468
000390 41 16 80 bb 6a d8 e2 3b b6 fe 89 3b f9 0b 26 bc
       -0.003908903 0.006922771 0.004211272 -0.01013469
0003a0 08 e1 a3 b8 85 cf 61 3c 69 f3 6b bc 4f 76 dc bc
       -7.814361e-05 0.013782387 -0.014401295 -0.026911883
0003b0 61 ba 16 bc 1d 6f ca 3c 4d e5 5e 3c f2 ce 55 3b
       -0.00919971 0.024711186 0.013604474 0.003262457
0003c0 3d 4c bc 3c 86 2b fc 3b 3d 3a a2 bb d9 87 85 3c
       0.022985572 0.007695618 -0.00495079 0.016300129
0003d0 43 4c 30 bc 02 e0 9f bc bb f9 8d bb 65 9c b2 3c
       -0.01076037 -0.019515995 -0.0043327487 0.02180309
0003e0 1e bd ba 3c ae 63 da 3b 8f ad c6 3b e3 49 0f 3c
       0.022795256 0.006664715 0.0060631703 0.008745643
0003f0 1f 4b be 3c 58 77 1e bc 6e 5b 7f 3b a9 5f 35 bb
       0.02322918 -0.009672008 0.0038964408 -0.0027675426

net.7.bias f4 [64]
000000 b4 17 a3 3b a8 ab c4 bb f4 7c d0 bc c3 6f df bb
       0.004977191 -0.0060019083 -0.025450207 -0.006818743
000010 98 51 ee 3b cc fa 91 bc 1c 65 7f bb c3 c9 00 3c
       0.0072729103 -0.017819785 -0.0038970178 0.007860604
000020 5a 79 88 bc b2 35 8b bc c9 c1 5a bc 54 5d 77 3b
       -0.016659427 -0.016993377 -0.013351866 0.0037744837
000030 1f 52 1c bc 36 18 69 3c 39 99 04 ba 00 e9 b2 b9
       -0.009541064 0.014226964 -0.00050582323 -0.00034124404
000040 ca af 8c bb ce 3e 6a bb 41 da 93 bc 0e 6b 5a 3c
       -0.0042934166 -0.0035743 -0.018048408 0.013331188
000050 84 f1 8f bc 81 b9 5b bc 16 37 d8 3b 83 1d 00 bb
       -0.017571218 -0.013410927 0.0065983636 -0.001954884
000060 38 b7 3b bc 0f 1f c4 bc fb 87 78 3b d3 4a 85 bc
       -0.011457257 -0.023940591 0.0037922848 -0.01627103
000070 c2 6b 17 3c cd ad 00 bc d5 28 a0 bb 43 9b c8 bb
       0.009242 -0.007853937 -0.00488768 -0.0061220243
000080 40 fc e9 ba 1e 7d 66 bc 70 9a 60 bc 99 68 5c bc
       -0.0017851666 -0.014067916 -0.013708696 -0.013452672
000090 c6 f8 3b 3c 7b 5a 96 bc 54 aa 8e bb 00 1a c9 b9
       0.011472886 -0.018353691 -0.004353801 -0.0003835708
0000a0 b7 d7 a7 3c 77 d1 60 bc 47 8b a3 bc 92 bb 50 3c
       0.020488603 -0.013721815 -0.019963874 0.012740033
0000b0 0d 5e 7d 3c ee 99 05 3c 93 29 50 3c 39 aa 7b bb
       0.015464318 0.0081543755 0.012705225 -0.003840102
0000c0 f0 89 03 3c 36 52 38 3c 29 1b 6d 3c 98 21 4b bc
       0.008028492 0.011250069 0.0144718075 -0.012398146
0000d0 3c a1 69 bc e1 22 a4 3c 86 eb a3 bc 30 73 ad bc
       -0.014259633 0.020036163 -0.020009767 -0.02117309
0000e0 5a 77 31 bb 3b 0c c7 3c d0 1e 09 3a bf 5d a9 3c
       -0.0027079196 0.024297824 0.00052307267 0.020674584
0000f0 66 c2 05 3c e6 32 99 bc c7 db 89 3c 9b c5 4f 3c
       0.008164024 -0.018701028 0.01682843 0.01268139

net.9.weight f4 [2, 64]
000000 50 b4 d1 3d 6b a9 7d bd 85 e5 6e 3d 55 b6 67 3d
       0.1023947 -0.061929148 0.058324356 0.05657037
000010 4c 29 20 bd e2 ac 9c 3c 89 62 03 3d c1 e5 68 bd
       -0.039101884 0.019125406 0.032076392 -0.056859735
000020 43 d9 e8 bc db 5f 57 3c 52 b1 b4 3d 70 62 be 3c
       -0.028423911 0.013145412 0.08822884 0.023240298
000030 9f 7d 60 3d 80 1d 41 bc 7e e0 ee 3c b2 0b e3 bd
       0.0548073 -0.0117868185 0.02915978 -0.11086215
000040 a0 fc e3 bc 66 bd a9 bc 04 a9 eb bd d6 63 cb bd
       -0.027830422 -0.020720195 -0.115068465 -0.099311516
000050 1f b1 32 3d 99 24 cb bc 2f b2 b3 bd 83 27 a5 bd
       0.043625947 -0.024797725 -0.0877422 -0.08064177
000060 53 70 91 3c 09 c0 5f 3d 07 7d f2 bc 77 0a 9b bd
       0.017753756 0.0546265 -0.029600633 -0.075703554
000070 0a f2 8b bd d0 39 d6 bd b5 fd 40 3d 95 f6 e6 3d
       -0.06833275 -0.104602456 0.047116954 0.112775005
000080 56 9d e6 bd 18 95 96 bd 89 a5 af bb 07 d4 bb 3d
       -0.11260478 -0.07352656 -0.0053603095 0.091713004
000090 9c fa 8f 3d e2 51 08 3d a8 2f fd 3d f4 7d 02 3d
       0.07030222 0.033281215 0.12362605 0.0318584
0000a0 10 ab e5 bd 92 82 fd 3c a2 a6 cc 3d 14 6a d6 3d
       -0.11214268 0.03094605 0.0999272 0.104694515
0000b0 c1 b2 b0 bd 50 7d 96 3d 4e f8 ca 3d a2 ca d5 bc
       -0.086278446 0.0734812 0.099106416 -0.0260976
0000c0 28 81 97 3d cc 69 6b bd 4c e2 bf bd 68 c7 a8 bc
       0.073976815 -0.057473943 -0.093693346 -0.020602897
0000d0 af e6 87 bd 78 8a f1 3c 68 ae aa bd 08 c7 6d 3d
       -0.06635796 0.029484972 -0.083340466 0.05805114
0000e0 cd ac d3 bd d8 9f dd 3d ff 28 a8 3d 18 3a d4 bd
       -0.103356935 0.108215034 0.082109444 -0.10362643
0000f0 16 f9 9b bd ae fc 86 3d 52 8d ea 3c a4 cd 7d 3d
       -0.07615869 0.065911636 0.02863184 0.061963692
000100 34 9d c4 3c 20 f1 d6 bd d7 ea 58 3d 85 81 e9 39
       0.024000742 -0.1049521 0.052958336 0.00044537723
000110 76 92 b2 bd e9 4d 6e bd 57 92 40 3d 54 15 b9 bb
       -0.087193415 -0.05817977 0.04701456 -0.0056482945
000120 cd 5e be bd 15 03 2c bd ec b2 0c 3d 12 ac 9d 3d
       -0.092954256 -0.041995127 0.03435032 0.076988354
000130 f1 26 dd bd 5c dd 37 3d fe 1b cf bc 60 b2 93 bb
       -0.10798443 0.04488884 -0.025281902 -0.004507348
000140 00 1a 9b bd cd 56 f2 bd b8 6e 10 3d 78 9b 9f bd
       -0.075733185 -0.11832962 0.03526184 -0.07793325
000150 24 bb 8a 3d 49 3b f3 3c 0e 7b 00 bc 9b e6 e1 3d
       0.067739755 0.029691355 -0.0078418385 0.11030313
000160 b2 a2 4b 3d 15 81 9d 3d e0 81 33 3d 00 2c 3e 3d
       0.049715705 0.07690636 0.04382503 0.04642868
000170 80 d4 22 3b 98 4e d9 bd 61 85 86 3d 05 33 c6 3d
       0.0024845898 -0.10610694 0.06568409 0.096777
000180 c8 d0 d6 3c b0 66 9e bd a7 6f 2c 3d e3 aa 71 3c
       0.026222602 -0.0773443 0.042098667 0.014750215
000190 6c fb 3d 3d 53 5f ab 3d ab 65 a1 bd 1a d1 ee 3d
       0.046382353 0.08367791 -0.0788072 0.11660977
0001a0 28 c5 c1 3d 38 87 d0 bd 80 bf 7a 3d ae bb b4 bd
       0.09461433 -0.10182041 0.061217785 -0.088248596
0001b0 65 55 e2 3d a0 4a ec bd 42 7b 4b bd 71 69 f4 3d
       0.11051444 -0.11537671 -0.049678095 0.11934174
0001c0 e4 b0 a4 bd 86 9a aa bd a5 22 23 bc 3c cc a5 bd
       -0.08041552 -0.08330254 -0.00995699 -0.08095595
0001d0 df 44 9b bc 5a 84 ec 3d 4f 6b 4e bd 38 ec a8 3c
       -0.018953739 0.115486816 -0.050395306 0.02062045
0001e0 57 76 87 3d fe e9 ae bd 61 ca df bd e8 1d a2 bd
       0.066143684 -0.08540724 -0.109272726 -0.079158604
0001f0 88 2d 1f 3d 8c c1 c4 3d 49 52 6f bd b0 46 c4 bc
       0.03886178 0.09607229 -0.058428083 -0.023959488

net.9.bias f4 [2]
000000 3a 9d dd 3c c1 93 a6 3d
       0.02705251 0.081336506
